Study/dqn_actor.pth (torch, 71847 bytes, 6 tensors)

layer1.weight f4 [128, 4]
-0.32529655 -0.496523 0.082756706 0.08324114 -0.26751035 0.27272773 0.37418532 0.08640665
1.0653062 0.0043693506 -0.79674715 -0.6747152 -0.1962816 0.5054026 -1.0273179 0.07560367
-0.32400253 0.47517183 0.29035985 -0.10595932 -0.10085519 0.38024223 0.10829152 0.04300247
-0.56533176 0.41827694 0.16824172 0.06222343 -0.10880353 0.06983821 -0.3350273 0.09633666
-0.1951336 -0.37622395 1.049949 0.4388032 0.36755282 -0.42458826 0.25677127 -0.47576275
-0.075301565 0.37383294 -0.98818445 -0.43978712 -0.3484314 -0.19533113 0.071789116 -0.068847194
-0.011673848 -0.21752985 -0.30024803 -0.29002914 -0.5754554 0.042883053 0.4111075 0.5436069
-0.5040662 0.34432337 0.535451 0.58570325 0.21667506 0.22370277 0.37686074 -0.03270385
-0.14840025 -0.24877873 0.41430604 -0.1680046 -0.7164285 -0.40069208 1.3172326 0.08888758
-0.02930977 -0.29423332 1.1493727 0.18578191 -0.0046200478 0.24471633 -0.66690844 -0.37465763
0.5974051 0.33273634 -0.22178692 0.21500054 -0.81105304 0.31520653 0.07725365 0.2682605
-0.151713 0.34376743 0.66601586 0.011256965 0.65190256 0.15421583 -0.82248807 -0.57614547
0.472915 -0.14379424 -0.6929783 -0.17957091 -0.3727294 -0.067691654 1.2163333 0.010937841
0.59847575 -0.1733896 -0.55002457 0.28805196 -0.21176393 -0.58509123 -0.9755385 -0.19617261
0.27159217 -0.12871353 -1.2669765 -0.3333489 -0.15041877 -0.5994928 -0.63324016 -0.14423467
0.48114452 0.197108 -0.4094712 -0.67660695 -0.27765545 -0.5015368 -0.00070452114 0.16365834
0.03813529 -0.032518916 -1.2004158 -0.15562162 -0.018915903 0.14511861 0.005869921 0.2609032
0.4786575 0.13243857 0.33867854 0.054858543 0.2584405 -0.07564513 0.3366196 0.15219972
-0.11836858 -0.13958113 0.70189416 0.021505503 -0.6432794 0.47301596 1.0801318 0.22999237
0.09795505 -0.05729461 -0.6749666 -0.13452089 -0.70653 0.522481 0.85603005 -0.2136459
0.41326913 -0.2852448 -0.48456293 -0.53235483 0.2300484 0.006843177 -0.5933253 -0.124614485
0.47826913 -0.22245215 -0.66269046 0.21908407 -0.57497734 0.07632846 -0.13529694 0.006397777
-0.4501448 -0.41278747 -0.33346853 -0.32170343 -0.075653724 0.058250338 0.46713215 0.12798172
0.4704998 0.14924148 0.17915983 -0.29010582 -0.57708615 -0.5184317 -0.26904464 -0.34251127
0.23489891 0.54978526 0.18259767 -0.013901517 0.39214736 -0.36663416 -0.12423667 -0.0656666
-0.1328214 0.37343508 0.58330876 0.10394324 -0.41627505 0.24826288 0.8273968 0.4027948
0.021513445 0.07452689 0.25083348 -0.14337407 -0.30373907 -0.09233183 -0.12628244 0.108757935
0.1850747 -0.20151953 -0.0089162495 -0.2135552 -0.18547523 0.29401824 -1.0553129 -0.5865353
0.32329658 -0.26121584 -1.2279832 -0.43319398 0.0053927116 -0.018323157 -0.25526348 0.33190408
0.52364624 -0.31633082 -0.4846181 -0.40285304 0.17509364 -0.21098007 -0.113085285 -0.13490272
-0.056885846 0.0074693416 0.41024327 -0.056422792 0.33006874 0.48986676 -0.72781783 0.06868624
-0.5867809 0.094604686 0.70648515 0.16188456 0.32348806 -0.04383062 0.2417838 -0.10683983
00000000: 458d a6be 4338 febe 597c a93d 557a aa3d
00000010: 1ef7 88be f8a2 8b3e 3895 bf3e f8f5 b03d
00000020: f45b 883f c52c 8f3b 9ff7 4bbf 23ba 2cbf
00000030: 0bfe 48be 1162 013f 277f 83bf 19d6 9a3d
00000040: a9e3 a5be b949 f33e 0caa 943e 3301 d9bd
00000050: 2a8d cebd 1caf c23e f2c7 dd3d 5c23 303d
00000060: 95b9 10bf 6528 d63e 8f47 2c3e ffdd 7e3d
00000070: 63d4 debd 5607 8f3d b388 abbe 284c c53d
00000080: 1ad1 47be 6da0 c0be bb64 863f d0aa e03e
00000090: e22f bc3e a263 d9be 8677 833e 2d97 f3be
000000a0: b537 9abd 0867 bf3e a8f9 7cbf c72b e1be
000000b0: 9a65 b2be e204 48be 2c06 933d c2ff 8cbd
000000c0: ab43 3fbc 25c0 5ebe 1cba 99be b37e 94be
000000d0: 0c51 13bf 24a6 2f3d af7c d23e d229 0b3f
000000e0: 7c0a 01bf 274b b03e 5113 093f a6f0 153f
000000f0: 11e0 5d3e 5712 653e e4f3 c03e 79f4 05bd
00000100: 3cf6 17be dabf 7ebe ec1f d43e 6609 2cbe
00000110: dc67 37bf 8327 cdbe 149b a83f b10a b63d
00000120: 0b1b f0bc c0a5 96be a51e 933f 9d3d 3e3e
00000130: c563 97bb eb96 7a3e 83ba 2abf 20d3 bfbe
00000140: 8aef 183f 6b5c aa3e 1c1c 63be 1a29 5c3e
00000150: 2ca1 4fbf c062 a13e 2937 9e3d 7159 893e
00000160: a75a 1bbe 4902 b03e 0480 2a3f 226f 383c
00000170: 16e3 263f c1ea 1d3e 948e 52bf 457e 13bf
00000180: ea21 f23e cc3e 13be 0767 31bf 70e1 37be
00000190: 63d6 bebe eca1 8abd cfb0 9b3f a134 333c
000001a0: b535 193f 0b8d 31be 69ce 0cbf 8c7b 933e
000001b0: a5d8 58be 8ac8 15bf e4bc 79bf 79e1 48be
000001c0: 210e 8b3e 7bcd 03be 492c a2bf b5ac aabe
000001d0: 6107 1abe 5c78 19bf 071c 22bf 41b2 13be
000001e0: 9358 f63e aed6 493e 36a6 d1be 1d36 2dbf
000001f0: db28 8ebe b764 00bf 9daf 38ba 0d96 273e
00000200: c033 1c3d 8e32 05bd 3aa7 99bf 465b 1fbe
00000210: 86f5 9abc f999 143e 7758 c03b 1b95 853e
00000220: 9912 f53e fa9d 073e 4667 ad3e 5ab3 603d
00000230: 5052 843e d5eb 9abd 6759 ac3e 3eda 1b3e
00000240: 3a6b f2bd 5bee 0ebe 56af 333f 4f2c b03c
00000250: f5ad 24bf 262f f23e c241 8a3f 1f83 6b3e
00000260: a89c c83d c1ad 6abd 9cca 2cbf d8bf 09be
00000270: 26df 34bf 51c1 053f c924 5b3f fec5 5abe
00000280: 0398 d33e 9b0b 92be a218 f8be 6848 08bf
00000290: cf91 6b3e bb3c e03b 2be4 17bf e135 ffbd
000002a0: b1df f43e 7fca 63be 15a6 29bf 9357 603e
000002b0: b731 13bf 1852 9c3d 488b 0abe 71a4 d13b
000002c0: 6179 e6be e158 d3be 63bc aabe 50b6 a4be
000002d0: 57f0 9abd e897 6e3d f22b ef3e a40d 033e
000002e0: 5ae5 f03e c2d2 183e ad75 373e c088 94be
000002f0: ebbb 13bf f1b7 04bf 38c0 89be a35d afbe
00000300: 5789 703e babe 0c3f e2fa 3a3e 30c3 63bc
00000310: 8ac7 c83e 79b7 bbbe cc6f febd 367c 86bd
00000320: 5502 08be e232 bf3e b953 153f 32e0 d43d
00000330: 0122 d5be a038 7e3e 47d0 533f 1f3b ce3e
00000340: f73c b03c 8ea1 983d 3f6d 803e a7d0 12be
00000350: b083 9bbe 7818 bdbd 2f50 01be 7bbc de3d
00000360: 3984 3d3e 235b 4ebe 7615 12bc 37ae 5abe
00000370: 38ed 3dbe 8f89 963e 7e14 87bf 2d27 16bf
00000380: 2187 a53e 15be 85be 8e2e 9dbf 9acb ddbe
00000390: 58b5 b03b 721a 96bc e5b1 82be 55ef a93e
000003a0: ae0d 063f 1df6 a1be dd1f f8be c142 cebe
000003b0: bf4b 333e 290b 58be 4299 e7bd f023 0abe
000003c0: 2201 69bd 61c1 f43b 680b d23e 961b 67bd
000003d0: c5fe a83e d1cf fa3e 4552 3abf 5fab 8c3d
000003e0: 4637 16bf 1ac0 c13d 36dc 343f 11c5 253e
000003f0: 3aa0 a53e bc87 33bd 2c96 773e d7ce dabd

layer1.bias f4 [128]
0.47408792 -0.41685435 0.10000262 -0.30023825 0.68209094 0.2578995 0.3044934 0.42247415
-0.4424538 0.56535417 -0.079300836 -0.478023 0.43384862 -0.23792864 -0.50751746 0.4720586
-0.3634146 -0.38109803 -0.42804167 -0.45095298 -0.15326202 0.30738547 0.6546363 0.37766582
0.41729075 -0.14591782 0.24314336 0.17423382 -0.36517915 0.011516453 -0.09175537 0.12626885
-0.26481262 0.55346113 0.5003471 -0.28015974 -0.20759061 0.31533208 -0.18918462 0.07593011
-0.5069366 0.48142296 0.6866233 0.3557554 0.57108563 0.6841752 0.40015504 0.46134043
0.17286365 0.4697914 0.6914044 -0.32786506 0.56274366 -0.25643387 0.31449515 -0.36987582
-0.44461286 0.39573842 0.6660202 0.62975174 0.6764452 -0.24509847 0.45673016 0.5946529
0.33892396 0.47974426 0.24347821 -0.52681345 0.72819376 -0.5063283 -0.3252732 0.7073327
-0.48360318 -0.07266932 -0.4716773 0.68058497 0.20500624 -0.38520658 0.26758787 0.6151569
0.41503116 -0.36995533 -0.5246964 0.3350131 -0.07002244 0.027186068 -0.39097276 -0.04190617
0.5299471 -0.44360033 0.5677697 0.3699362 0.29439893 -0.4081397 0.71671 0.31815916
-0.6151948 0.4833883 0.26260448 0.48260486 0.23684198 -0.43351805 -0.280487 0.6187402
0.57602876 0.032523923 0.46473038 0.0751367 0.5030107 0.28050715 -0.52632 0.20669225
0.17653689 0.14563918 -0.34362075 0.41420764 0.68219244 0.42190197 -0.11610937 0.26112178
-0.16739699 0.43840948 0.7003023 0.6713704 -0.3040255 0.45645803 0.33089912 0.40217462
00000000: a7bb f23e ef6d d5be 2cce cc3d d4b8 99be
00000010: 839d 2e3f 670b 843e 8fe6 9b3e 884e d83e
00000020: 4e89 e2be 0dbb 103f 7a68 a2bd 6ebf f4be
00000030: 6821 de3e 91a3 73be aaec 01bf aab1 f13e
00000040: 7a11 babe 481f c3be 4728 dbbe 4fe3 e6be
00000050: b8f0 1cbe a161 9d3e 3f96 273f 6a5d c13e
00000060: 22a7 d53e 7b6b 15be 93fa 783e 5a6a 323e
00000070: c3f8 babe 81af 3c3c 3dea bbbd 9f4c 013e
00000080: 8595 87be a1af 0d3f bf16 003f 1971 8fbe
00000090: a292 54be 3573 a13e 9db9 41be 3f81 9b3d
000000a0: 99c6 01bf 127d f63e 8bc6 2f3f 9225 b63e
000000b0: ab32 123f 1b26 2f3f 1fe1 cc3e d034 ec3e
000000c0: 2b03 313e 8088 f03e e1ff 303f eedd a7be
000000d0: f80f 103f 4d4b 83be 8205 a13e 5d60 bdbe
000000e0: 4ca4 e3be 3a9e ca3e 4d80 2a3f 6937 213f
000000f0: 832b 2d3f 18fb 7abe 89d8 e93e 2c3b 183f
00000100: 7187 ad3e 0aa1 f53e 5a52 793e 3fdd 06bf
00000110: e86a 3a3f bb9e 01bf 358a a6be c113 353f
00000120: d69a f7be a7d3 94bd b07f f1be d13a 2e3f
00000130: 28ed 513e cc39 c5be 4701 893e ec7a 1d3f
00000140: f77e d43e c96a bdbe 8152 06bf d686 ab3e
00000150: ed67 8fbd 51b5 de3c 952d c8be cea5 2bbd
00000160: 9daa 073f 951f e3be 5b59 113f 4768 bd3e
00000170: 75bb 963e b0f7 d0be 4e7a 373f c2e5 a23e
00000180: 687d 1dbf ac7e f73e 1874 863e fc17 f73e
00000190: b486 723e 14f6 ddbe fe9b 8fbe c265 1e3f
000001a0: 9f76 133f ce37 053d 24f1 ed3e 45e1 993d
000001b0: 4fc5 003f a29e 8f3e e8bc 06bf 22a7 533e
000001c0: 16c6 343e 7022 153e 0fef afbe 0613 d43e
000001d0: 2aa4 2e3f 8903 d83e c0ca edbd c1b1 853e
000001e0: 1e6a 2bbe 3577 e03e 0347 333f eede 2b3f
000001f0: 3ba9 9bbe deb4 e93e 9c6b a93e d5e9 cd3e

layer2.weight f4 [128, 128]
0.07250574 -0.023949716 -0.022643616 -0.07347899 -0.056415714 -0.00043918332 0.03128071 -0.040659912
-0.014960573 0.08188372 0.08319794 0.02996104 -0.030277818 -0.012549297 0.06253125 -0.07890179
-0.04329534 -0.013092988 -0.06673564 -0.016221669 -0.019003019 0.036754165 -0.08361555 -0.043947298
-0.0709074 -0.022866752 0.035335727 -0.06294591 -0.06712122 -0.052168164 0.04216164 0.034594454
0.062081285 -0.05136238 -0.002034703 -0.07077038 0.04423859 0.0027086455 -0.02141767 -0.020250868
0.052385744 -0.06566654 0.07574223 -0.088144496 -0.0014447252 0.012533175 0.03434723 -0.071298555
-0.0037407659 -0.050101664 0.0162422 0.03100249 0.052990828 0.050883703 0.07865384 0.019249925
-0.0683257 -0.027332427 -0.04935896 -0.05052363 0.0533518 -0.022271343 0.01251023 0.07431534
-0.03967363 -0.05611594 0.074874826 -0.017139755 -0.06719672 0.019858379 -0.026510984 0.0054475
0.056495976 -0.025904479 -0.0009810373 0.018034153 -0.00030177884 -0.006432451 0.059293535 -0.042070113
0.0009914244 -0.004057785 0.02447083 0.030073602 0.016537622 -0.031826265 0.013395729 -0.055107925
0.016689796 0.050111413 0.06966334 -0.023014871 0.004167038 -0.080748245 -0.021000585 0.043597534
-0.026043696 0.007521751 -0.009928497 -0.044211864 0.012694108 0.059687275 0.044432677 -0.049499754
0.062226437 0.047398284 -0.048128802 -0.08183556 0.00827357 0.015840773 0.014600866 0.022926375
-0.07121917 -0.06980579 -0.027822789 0.078162216 -0.06402203 -0.03306552 0.07741723 0.08110204
0.061340142 0.022230482 -0.07469214 -0.0008383945 -0.03366241 0.017464899 -0.023732027 -0.035756588
0.042867884 0.018875336 0.053738683 -0.047600172 -0.026132528 -0.07472068 0.022705374 -0.052365802
0.059355255 -0.05214484 -0.06979916 0.034690686 -0.07049208 -0.04222959 -0.024017807 0.06728821
0.037710957 -0.058383536 0.084361985 0.047440365 0.014079355 0.05163631 -0.06788244 -0.07968278
0.016822085 0.026878448 -0.07327128 -0.044906996 -0.012878936 -0.022090334 -0.033876143 -0.034753885
0.016436119 0.036039583 0.009641908 0.0340965 -0.03016436 -0.07457453 -0.078214034 0.054338716
0.061514765 0.079747215 -0.08305184 -0.004267139 0.0022799517 -0.06299683 0.023605313 0.08304127
-0.051401153 -0.054883868 -0.035801552 -0.011249216 0.020787261 0.005782171 -0.01240653 0.05713599
-0.04320979 0.06672014 0.056302574 -0.047599837 0.070652135 -0.017007533 -0.018808864 0.067361884
-0.010012665 0.057465974 -0.081296764 -0.0064416323 0.0037454886 -0.063086614 0.07782423 -0.0597531
-0.049999297 -0.07156053 0.04078415 0.036040463 -0.03980887 0.04123108 -0.039472662 -0.06266076
0.06724664 0.06819814 -0.018523417 0.08077046 -0.002225438 -0.0075554554 -0.05749492 0.07013779
-0.042760678 -0.010079952 -0.003434181 -0.016487956 -0.00030259523 -0.011233976 0.05615547 0.020135326
-0.07070166 0.052393146 -0.046526484 -0.05532656 0.048028655 -0.02164799 -0.0115327295 0.008776527
-0.056760926 -0.016962864 -0.012783517 0.0016846819 0.01585068 0.0794198 -0.07684488 -0.013593856
-0.071953356 0.010447419 -0.019029124 0.041910548 0.0091933375 -0.0651686 0.015736373 0.00822503
0.07086076 -0.069258414 -0.016005145 -0.03979767 -0.037692856 0.06764485 0.03795034 0.0743856
00000000: e47d 943d 3232 c4bc 1b7f b9bc 277c 96bd
00000010: 2a14 67bd 3042 e6b9 3420 003d 028b 26bd
00000020: 311d 75bc a7b2 a73d ae63 aa3d db70 f53c
00000030: 3009 f8bc 919b 4dbc 6210 803d 4397 a1bd
00000040: 7456 31bd f983 56bc b2ac 88bd 4ee3 84bc
00000050: 38ac 9bbc 898b 163d a13e abbd 1502 34bd
00000060: e637 91bd 0e53 bbbc 32bc 103d c9e9 80bd
00000070: da76 89bd 49ae 55bd afb1 2c3d eab2 0d3d
00000080: f248 7e3d 5c61 52bd a758 05bb 10f0 90bd
00000090: 8633 353d 8883 313b 1c74 afbc 26e5 a5bc
000000a0: 6f92 563d 2e7c 86bd be1e 9b3d 1a85 b4bd
000000b0: ef5c bdba f257 4d3c aeaf 0c3d fa04 92bd
000000c0: a327 75bb 6737 4dbd 5d0e 853c eff8 fd3c
000000d0: e90c 593d 6e6b 503d 4415 a13d 05b2 9d3c
000000e0: 58ee 8bbd 41e8 dfbc 9f2c 4abd def1 4ebd
000000f0: 6b87 5a3d 6472 b6bc b5f7 4c3c a432 983d
00000100: d180 22bd d4d9 65bd f957 993d ac68 8cbc
00000110: 6f9e 89bd 0aae a23c 902d d9bc f180 b23b
00000120: 5368 673d a135 d4bc 2696 80ba 5cbc 933c
00000130: 1238 9eb9 4fc7 d2bb c7dd 723d b651 2cbd
00000140: aff2 813a 2bf7 84bb 0d77 c83c ea5c f63c
00000150: e879 873c 425c 02bd c279 5b3c d9b8 61bd
00000160: 0ab9 883c a041 4d3d a7ab 8e3d af89 bcbc
00000170: a68b 883b 565f a5bd 6b09 acbc 5493 323d
00000180: 9759 d5bc 0579 f63b 22ab 22bc 8017 35bd
00000190: f3fa 4f3c a57a 743d 0aff 353d 41c0 4abd
000001a0: 26e1 7e3d b424 423d b522 45bd 6799 a7bd
000001b0: de8d 073c 82c4 813c 7838 6f3c 18d0 bb3c
000001c0: 5bdb 91bd 57f6 8ebd 9eec e3bc 8313 a03d
000001d0: fb1d 83bd b66f 07bd ed8c 9e3d d418 a63d
000001e0: cd3f 7b3d b31c b63c 31f8 98bd b4c7 5bba
000001f0: 98e1 09bd 8c12 8f3c ab69 c2bc 8075 12bd
00000200: 3c96 2f3d 73a0 9a3c 181d 5c3d 66f8 42bd
00000210: e213 d6bc 2807 99bd 9f00 ba3c 867d 56bd
00000220: 7f1e 733d d495 55bd ddf2 8ebd d217 0e3d
00000230: 275e 90bd eff8 2cbd fec0 c4bc 67ce 893d
00000240: ce76 1a3d 9323 6fbd fac5 ac3d d450 423d
00000250: 18ad 663c 9880 533d f305 8bbd ba30 a3bd
00000260: 78ce 893c 3130 dc3c 410f 96bd 66f0 37bd
00000270: 2c02 53bc caf6 b4bc b6c1 0abd 175a 0ebd
00000280: 0aa5 863c 3e9e 133d 18f9 1d3c c6a8 0b3d
00000290: 3f1b f7bc 88ba 98bd ae2e a0bd 4692 5e3d
000002a0: e8f6 7b3d 8252 a33d 1517 aabd 5bd3 8bbb
000002b0: 3e6b 153b 7b04 81bd ee5f c13c 8b11 aa3d
000002c0: 048a 52bd e8cd 60bd a6a4 12bd a24e 38bc
000002d0: 0c4a aa3c 5e78 bd3b c244 4bbc 6e07 6a3d
000002e0: c0fc 30bd 92a4 883d 879d 663d 0cf8 42bd
000002f0: 11b2 903d 6253 8bbc 0c15 9abc 07f5 893d
00000300: 290c 24bc 7161 6b3d eb7e a6bd 5414 d3bb
00000310: df76 753b 8e33 81bd 4f62 9f3d abbf 74bd
00000320: 10cc 4cbd 548e 92bd 480d 273d 2a9f 133d
00000330: a00e 23bd ece1 283d 16ae 21bd 4954 80bd
00000340: 9bb8 893d 77ab 8b3d 6cbe 97bc fc6a a53d
00000350: a7d8 11bb c193 f7bb cb7f 6bbd 67a4 8f3d
00000360: d225 2fbd 6226 25bc ff0f 61bb c011 87bc
00000370: a5a5 9eb9 b60e 38bc 4703 663d d7f2 a43c
00000380: 08cc 90bd 329a 563d 8e92 3ebd 1a9e 62bd
00000390: b2b9 443d 2057 b1bc c6f3 3cbc 6ccb 0f3c
000003a0: 257e 68bd b4f5 8abc f571 51bc 8bd0 dc3a
000003b0: 49d9 813c d9a6 a23d d960 9dbd c4b8 5ebc
000003c0: 485c 93bd a72b 2b3c f7e2 9bbc 65aa 2b3d
000003d0: a79f 163c 1d77 85bd 91e9 803c 47c2 063c
000003e0: 721f 913d 5bd7 8dbd 391d 83bc e202 23bd
000003f0: d363 1abd 6289 8a3d d171 1b3d 7a57 983d

layer2.bias f4 [128]
-0.07181037 -0.074119546 0.035303526 -0.03269407 0.10641563 -0.05926797 -0.028130813 0.16017091
0.18296388 -0.07420556 0.13047364 0.063672066 -0.025652776 -0.15145604 -0.12859197 -0.11171828
0.16353944 -0.024862824 -0.037843604 -0.020525211 0.06159961 0.12992468 -0.020892758 -0.09567852
-0.028242784 0.25530824 0.20407566 -0.053804502 -0.05195654 0.19444448 0.07920674 0.15040769
0.14424823 -0.056905594 0.19066755 0.027087707 -0.010721318 0.21889542 -0.032306816 0.12392325
0.04775035 0.05662237 -0.07351649 0.074000545 0.042401277 0.014789837 0.13111763 -0.10713817
-0.04880955 0.053282 -0.06969698 0.23667476 0.14224385 -0.025160939 -0.08361162 0.21452188
0.1130955 0.052376494 -0.05979387 -0.06816597 0.13544956 0.09194789 -0.08991489 0.04520428
-0.03412183 -0.019129273 -0.033061568 0.29798922 0.07345091 0.13906193 0.021756142 -0.026818288
-0.049949035 -0.055063665 0.1556484 0.15096512 0.17415819 0.19594203 0.14225233 0.28162208
0.094310425 0.1755368 0.13614982 0.0055942237 0.051029243 0.14384821 0.24882454 0.22759186
0.06907356 -0.023916416 0.08862517 0.068757854 0.07623986 0.024757626 0.11170708 0.04046006
0.2558023 0.03731608 0.19688489 -0.053424526 0.19759785 0.1831002 -0.0019026648 -0.023996806
-0.039485656 0.20801884 0.0343463 -0.048968412 0.22936817 0.035268098 0.1806687 0.15977466
0.16139454 0.05033147 -0.019871749 -0.040880762 0.118027985 0.042979408 -0.0018985958 0.11772075
0.08503081 -0.027019933 0.07276703 -0.048705596 -0.06635907 0.10161797 -0.06107939 0.17939597
00000000: 5111 93bd fdcb 97bd 6e9a 103d 38ea 05bd
00000010: 70f0 d93d f9c2 72bd 9772 e6bc d803 243e
00000020: e25a 3b3e 16f9 97bd e29a 053e 8066 823d
00000030: c525 d2bc 4b17 1bbe 9dad 03be 8ecc e4bd
00000040: e276 273e 1fad cbbc e501 1bbd 7d24 a8bc
00000050: df4f 7c3d fa0a 053e 4a27 abbc 1af3 c3bd
00000060: 695d e7bc c3b7 823e 36f9 503e 1c62 5cbd
00000070: 62d0 54bd 741c 473e 2537 a23d 7904 1a3e
00000080: cfb5 133e d715 69bd 5b3e 433e 0ae7 dd3c
00000090: 78a8 2fbc 1f26 603e 2754 04bd 79cb fd3d
000000a0: df95 433d dcec 673d d08f 96bd 998d 973d
000000b0: f6ac 2d3d 1351 723c b343 063e 426b dbbd
000000c0: 86ec 47bd 3a3e 5a3d 4abd 8ebd de5a 723e
000000d0: 5fa8 113e 501e cebc 923c abbd a0ab 5b3e
000000e0: 9d9e e73d bc88 563d 6bea 74bd 9a9a 8bbd
000000f0: 4ab3 0a3e 2d4f bc3d 4c25 b8bd 2028 393d
00000100: 55c3 0bbd feb4 9cbc 916b 07bd 0b92 983e
00000110: 6e6d 963d 4066 0e3e f039 b23c 07b2 dbbc
00000120: 5c97 4cbd 708a 61bd 4b62 1f3e 9a96 1a3e
00000130: 8656 323e 07a5 483e 98aa 113e c530 903e
00000140: d325 c13d ebbf 333e dc6a 0b3e c04f b73b
00000150: 0a04 513d f24c 133e dccb 7e3e d70d 693e
00000160: 7076 8d3d 5cec c3bc 1d81 b53d ebd0 8c3d
00000170: a523 9c3d 81d0 ca3c aec6 e43d 73b9 253d
00000180: 85f8 823e bfd8 183d 319c 493e add3 5abd
00000190: 1757 4a3e 9e7e 3b3e d662 f9ba f394 c4bc
000001a0: b6bb 21bd e402 553e b5ae 0c3d 1a93 48bd
000001b0: 7ddf 6a3e 4875 103d 3701 393e f89b 233e
000001c0: 9c44 253e 5f28 4e3d 14ca a2bc 9672 27bd
000001d0: a8b8 f13d 2d0b 303d 4eda f8ba 9417 f13d
000001e0: a224 ae3d e858 ddbc e106 953d 857f 47bd
000001f0: 44e7 87bd 151d d03d 622e 7abd 94b3 373e

layer3.weight f4 [2, 128]
0.046395887 -0.07205962 0.24860449 0.24262899 0.275141 -0.42544174 -0.71308565 0.2357038
0.3523727 0.0033254558 0.28532138 0.185302 0.4592344 -1.0998322 -0.7298534 -0.7232645
0.32579598 -0.7363685 -0.58167577 0.020865437 -0.20854157 0.3370257 -0.69216686 -0.7704135
-0.0076655624 0.22142565 0.28386164 -0.05628798 -0.048948526 0.23396637 0.19164136 0.37660047
0.26714465 -0.007956386 0.14523876 0.28546825 0.0008883062 0.32097235 0.075651154 0.313171
0.26122302 -0.06295114 0.17522767 -0.37540388 -0.003056224 0.294042 0.33643597 -0.9648945
-0.014285579 0.06570672 -0.067293 0.30540717 0.291988 0.032606393 -0.05865696 0.35750124
0.37298167 0.006506771 -0.029038377 0.08576334 0.24242997 0.3236212 -0.43738338 0.5630981
-0.02276087 -0.7772824 -0.9546089 0.3288873 -0.048804127 0.29241484 -0.8658233 -0.5931587
-0.59503376 0.10390263 0.2682226 0.21253842 0.18499173 0.27562845 0.34112123 0.37051842
0.26937905 0.30865902 -0.6049089 -0.045420837 0.03058403 0.277633 0.26719746 0.17379068
0.24858488 0.12729578 0.24150848 0.30392048 0.27761757 0.02570831 0.28709218 -0.8590377
0.33331546 0.2553081 0.085564576 0.03770124 0.25674778 0.25745797 -0.030687356 -0.5529972
0.07526795 0.3588387 0.029192323 -0.8256628 0.23452926 0.052626487 0.2007109 0.31592816
0.15325147 -0.4858689 0.04386262 -0.041845918 0.16418442 -0.28742975 -0.051580913 0.31477672
0.2451989 0.15893273 -0.05293485 0.050762497 -0.02919928 0.29200628 -0.011274079 0.32866007
0.049388997 0.030049918 0.29191965 -0.82719547 0.35530338 -0.995382 -1.0516217 0.3242552
0.2968769 0.06846817 0.32711712 0.26972172 0.29075822 -0.74704635 -0.75345474 -0.87791103
0.2961356 -0.8721488 -0.67691773 -0.0772198 0.036752563 0.21908776 0.4510833 -0.87053114
-0.061099503 0.3756384 0.3061338 0.040785752 0.016699549 0.2599469 0.35534623 0.3822627
0.27734625 -0.012625944 0.2767098 0.28840417 -0.08333866 0.14313617 -0.07225124 0.22241756
0.193238 -0.084823325 0.23438196 0.28889257 0.03414567 0.32208183 0.2243091 -0.7809833
0.047550306 -0.048634384 -0.06029042 0.19599973 0.25895658 0.25951895 0.07305697 0.15261689
0.24123909 0.29481548 -0.06158334 -0.048388265 0.27254406 0.22462904 -0.6534715 -0.7859067
0.07847952 -0.3548225 0.019021586 0.22163409 -0.021976927 0.24092002 -0.4838756 0.047775354
0.16739754 -0.7998184 0.13995546 0.32766348 0.30568123 0.24445581 0.21333155 0.21348101
0.32819387 0.3462495 0.15607226 -0.040974 -0.007486321 0.25918895 0.26961538 0.22298741
0.29840294 0.3577244 0.2585242 0.24913196 0.2356267 0.052968893 0.28994852 -0.53339124
0.12360637 0.25614917 0.33838516 0.061339848 0.25997993 0.23664336 0.08544854 0.20515898
0.024020676 0.06727344 -0.05374751 -0.5818111 0.25035745 -0.064752355 0.24811159 0.22048073
0.30646828 -0.27647212 -0.06711167 0.030829722 0.3285898 -0.7752721 -0.06814073 0.26735264
0.31115004 -0.80963355 0.030585192 -0.028934523 0.016939756 0.1749836 -0.044779655 0.26891723
00000000: 9d09 3e3d fe93 93bd 2d92 7e3e bc73 783e
00000010: 48df 8c3e 80d3 d9be c88c 36bf 565c 713e
00000020: 326a b43e e4ef 593b a515 923e cfbf 3d3e
00000030: c520 eb3e 4dc7 8cbf acd7 3abf dd27 39bf
00000040: bbce a63e a582 3cbf b4e8 14bf feed aa3c
00000050: ec8b 55be a28e ac3e d931 31bf d239 45bf
00000060: 662f fbbb 68bd 623e 5056 913e 3a8e 66bd
00000070: 407e 48bd e194 6f3e a23d 443e c7d1 c03e
00000080: 2fc7 883e 805b 02bc 78b9 143e e528 923e
00000090: 38dd 683a 7d56 a43e feee 9a3d f357 a03e
000000a0: 06bf 853e 87ec 80bd e26e 333e f034 c0be
000000b0: ee4a 48bb ac8c 963e 5641 ac3e 5303 77bf
000000c0: 100e 6abc 3f91 863d ead0 89bd 545e 9c3e
000000d0: 737f 953e 488e 053d 4842 70bd 670a b73e
000000e0: 74f7 be3e c036 d53b e4e1 edbc b1a4 af3d
000000f0: 903f 783e aeb1 a53e b7f0 dfbe 3227 103f
00000100: 0175 babc fbfb 46bf 4061 74bf eb63 a83e
00000110: d6e6 47bd 66b7 953e 99a6 5dbf 40d9 17bf
00000120: 2254 18bf e7ca d43d 7954 893e aca3 593e
00000130: 796e 3d3e 2c1f 8d3e 71a7 ae3e 97b4 bd3e
00000140: 0dec 893e 8e08 9e3e 4fdb 1abf 330b 3abd
00000150: 5c8b fa3c ea25 8e3e 1bce 883e 2ff6 313e
00000160: 098d 7e3e d359 023e 004e 773e 779b 9b3e
00000170: e423 8e3e 3c9a d23c bffd 923e e5e9 5bbf
00000180: 53a8 aa3e beb7 823e 7b3c af3d 9e6c 1a3d
00000190: 7274 833e 88d1 833e 0d64 fbbc 3991 0dbf
000001a0: 1526 9a3d b5b9 b73e bd24 ef3c a35e 53bf
000001b0: 7028 703e df8e 573d 2887 4d3e 56c1 a13e
000001c0: f4ed 1c3e cfc3 f8be 4aa9 333d a066 2bbd
000001d0: f61f 283e fe29 93be 8246 53bd 6a2a a13e
000001e0: 6c15 7b3e 43bf 223e 37d2 58bd 56ec 4f3d
000001f0: 5433 efbc d981 953e eab6 38bc 2246 a83e
00000200: 1e4c 4a3d 3f2b f63c 7e76 953e 15c3 53bf
00000210: 53ea b53e 5bd1 7ebf 8a9b 86bf c704 a63e
00000220: 4000 983e 0a39 8c3d e57b a73e f718 8a3e
00000230: 43de 943e 6e3e 3fbf 69e2 40bf c7be 60bf
00000240: 169f 973e 2545 5fbf 7b4a 2dbf 6a25 9ebd
00000250: db89 163d 8b58 603e 64f4 e63e 21db 5ebf
00000260: 7943 7abd ad53 c03e 92bd 9c3e f60e 273d
00000270: 7ecd 883c c317 853e f1ef b53e f0b7 c33e
00000280: 5400 8e3e 0cdd 4ebc e8ac 8d3e b6a9 933e
00000290: 76ad aabd 4a92 123e 75f8 93bd 6ec1 633e
000002a0: 2fe0 453e dab7 adbd d301 703e bae9 933e
000002b0: 54dc 0b3d e9e7 a43e 49b1 653e 86ee 47bf
000002c0: 1cc4 423d d934 47bd 16f3 76bd 27b4 483e
000002d0: f595 843e abdf 843e e59e 953d 9a47 1c3e
000002e0: 6107 773e 0ef2 963e d03e 7cbd c632 46bd
000002f0: e58a 8b3e 2805 663e e949 27bf 2e31 49bf
00000300: dfb9 a03d 4bab b5be 28d3 9b3c 0cf4 623e
00000310: f508 b4bc bdb3 763e 8bbe f7be 17b0 433d
00000320: 436a 2b3e e6c0 4cbf 7c50 0f3e 82c3 a73e
00000330: 4082 9c3e a052 7a3e 9673 5a3e c49a 5a3e
00000340: 0709 a83e 9d47 b13e 68d1 1f3e 5ad4 27bd
00000350: d04f f5bb 6ab4 843e 070b 8a3e d056 643e
00000360: 45c8 983e a727 b73e 495d 843e 731c 7f3e
00000370: 2048 713e e9f5 583d 2274 943e 548c 08bf
00000380: 5625 fd3d fc25 833e d240 ad3e 7e3f 7b3d
00000390: 171c 853e a352 723e a5ff ae3d 3215 523e
000003a0: 02c7 c43c a8c6 893d 5926 5cbd 92f1 14bf
000003b0: da2e 803e e29c 84bd f710 7e3e b3c5 613e
000003c0: 69e9 9c3e c18d 8dbe d871 89bd 9d8e fc3c
000003d0: ec3c a83e 3b78 46bf 5e8d 8bbd 72e2 883e
000003e0: 0f4f 9f3e 2544 4fbf cc8d fa3c 1808 edbc
000003f0: 3ec5 8a3c e72e 333e df6a 37bd 85af 893e

layer3.bias f4 [2]
0.00014423871 0.009135926
00000000: c93e 1739 daae 153c
