Study/vpg_actor.pth (torch, 5291 bytes, 4 tensors)

affine1.weight f4 [128, 4]
00000000: 1df6 8ebe b4d3 d4be b5cd 463f 3d01 dc3e
00000010: b6d1 95be 2e43 393e 1ea7 c83e c87e 2b3e
00000020: 5af2 9c3e cceb 60be 9ebe 443b f742 d6be
00000030: 0c07 96be 6b0c f03e 218a f2be 1e06 ca3d
00000040: ac80 8abe fe1d d93e e984 90be 16e3 7ebe
00000050: 5913 75be bb23 683e 44f9 5bbf c6d7 a8be
00000060: 94c2 85be eb39 c13e 34aa 8c3e 37fb cc3e
00000070: cfc8 443e 53f6 5e3e 4293 eabe 8490 8a3d
00000080: 74e5 ce3d fed6 c4be f209 a13e edfc c63e
00000090: 4584 df3d 5f16 2bbf 5465 b1be ade4 1dbf
000000a0: f50d d2be 6f63 783e c8fc 38bf d79d 15bf
000000b0: b5c8 d2be 2354 4bbe ee9e a03e b9a0 9dbd
000000c0: 8151 3dbd 82fd cebd fcc5 16bf 6bf7 dabe
000000d0: 9d8e 28be 502a 523e 2158 e4be b7f2 a13e
000000e0: 6b22 debd d751 9f3e aaa4 ffbe fe94 ac3e
000000f0: 6f33 1e3e b083 963d e583 3b3f 6801 583e
00000100: 5ce5 febd 2f0c 43be dc1f 283f 6f9a d9bd
00000110: 985e 28bf 309c 23bf e7a4 833e 2c3d 023c
00000120: 8c0c 1e3e 729d e9be 9f3c 333f b5ed 803e
00000130: 1da4 5cbe 54ec ed3e a944 8c3d 3236 c5be
00000140: 9af3 843e ea30 273a 114b babe 52e4 5d3e
00000150: 57c2 dfbe ed60 963e 2a81 243d 4d83 013f
00000160: db2b 27be 2333 1d3e 4670 893f 68a8 9d3e
00000170: e04c ce3e 673c 763e 9624 2cbf 5389 29bf
00000180: d047 163e 94ce 38be 3a30 54bf 39bf 7bbe
00000190: 8c98 93be 74a5 bebd e249 2b3f b643 7abe
000001a0: a44d d13e 3013 8d3d 0fe9 943c dfdc 973e
000001b0: b4ee 55be 4e05 c2be ad30 0cbf 4454 74be
000001c0: fffa a13e 898a 1bbd d54d 08bf 3dd8 89be
000001d0: 749e 463d 5a82 a1be 9aee efbe 896c 44be
000001e0: f020 923e 4bf4 763e 575f 87bd a8f0 1bbf
000001f0: 7e1b 5abe 6964 e1be 1950 b5be e2b0 e73c
00000200: 4db3 12bf 6fd0 54be e9ca 84bf fc4a a0be
00000210: 3c48 163e 42b4 5c3e 7432 173f 90d8 183f
00000220: 64c5 103f ea52 5dbd 8df3 0b3f b6be 9a3e
00000230: 191b 643e 43e5 8bbd 3926 0b3e 2e07 f6bc
00000240: 10de debd a600 42be 2c50 5e3e c9df 7dbd
00000250: cbd0 6abe e42d ac3e 5cbe e93e b737 973e
00000260: c22e 03bd 6893 d73c 0167 bc3e 0e4a d93d
00000270: 5839 b0be 77fe 753e 33c0 543e c459 193d
00000280: b79e e13d 1f76 99be f693 9a3e 2775 e4be
00000290: 9af7 bdbd c134 25be c069 863e 1f70 873e
000002a0: 2b57 bb3e 9dfc 023c bf77 12be 6b03 953e
000002b0: d050 cbbe b3fd 013e f20d 973e 689c 893e
000002c0: 0c52 b5be 939b 1ebf 5a48 4fbf f709 c8be
000002d0: 8aca f63c 2a64 ac3b 13a5 223e eb37 013e
000002e0: b2a5 d83e 06d9 a53d 6bd2 acbe ab1b bebe
000002f0: bf9f 02bf 0544 f2be 2acb 343e 5aae 10be
00000300: dbac 123d 54d6 b03e e83c 26bf fe04 91be
00000310: ae27 2b3f 34d2 11be 80a0 a0bd b178 c7bc
00000320: 2cbc a53c 21e2 c83e 2c0b a4bd f686 50be
00000330: d14b 053e 8a5e 033e f6ab 8dbe 920a 7c3e
00000340: a7e9 e93d 11b7 573e 37f2 54be cfaf f4be
00000350: 4274 c3be f438 14be ec36 27bf 6c3e ffba
00000360: 81a2 71bd ab54 9abe 1e28 35bf 95fa 13bf
00000370: f63a 24bf f7bf 413e c5f4 cebe 6632 07bf
00000380: 41a8 713d 97ed 0ebe 01c6 aabe 9e81 58be
00000390: 2fa5 c0bd 169a b73d 1f8c 8e3e 9c4b dc3e
000003a0: 75df bc3e 0f60 f4be 24bc c5be fa65 98be
000003b0: 12a7 9f3e 9b55 6fbe 4db2 4dbe 6a29 7ebd
000003c0: 0985 02be a9ab 86be 6619 abbd daa3 fcbb
000003d0: 5df0 a13d 001f db3e 40a8 57be 1e6d 943e
000003e0: 09f8 87be 804d 9cbd 7ce0 5a3f 7f83 0c3f
000003f0: a9b1 523e 4bab a5bd 6d8a 90be 7f94 abbe
-0.27922145 -0.41567767 0.77657634 0.42969695 -0.2926156 0.18092033 0.3919 0.16747582
0.3065365 -0.2196495 0.0030020843 -0.41847965 -0.2930225 0.46884474 -0.4737101 0.09864448
-0.27051294 0.42405695 -0.28226402 -0.24891314 -0.23933162 0.2266988 -0.85927224 -0.32977122
-0.26125014 0.377395 0.27473605 0.40035412 0.19217227 0.21773653 -0.45815474 0.067658454
0.101023585 -0.38445276 0.314529 0.38864842 0.109139 -0.6683101 -0.3464762 -0.61677057
-0.41026273 0.24256681 -0.72260714 -0.5844397 -0.41168752 -0.19856314 0.31371254 -0.07696671
-0.046220306 -0.101069465 -0.5889585 -0.4276689 -0.16460653 0.20523953 -0.44598487 0.3163049
-0.108464085 0.31117126 -0.49930316 0.33707422 0.15449308 0.07349336 0.7324813 0.21094286
-0.124460906 -0.19047616 0.65673614 -0.10625159 -0.6576934 -0.639102 0.25711748 0.007949155
0.15434474 -0.45627934 0.70014375 0.25181356 -0.21546979 0.46469367 0.068490334 -0.3851791
0.25967103 0.0006377833 -0.36385396 0.21669129 -0.43702957 0.29370824 0.040162243 0.50590974
-0.16325323 0.15351538 1.0737388 0.30792546 0.40293026 0.24046479 -0.67243326 -0.66225165
0.14675832 -0.18047553 -0.8288609 -0.24584664 -0.28827322 -0.093089014 0.6690961 -0.24439892
0.40879548 0.06888425 0.018177537 0.296607 -0.2089184 -0.37894672 -0.54761773 -0.2386027
0.31636807 -0.037973914 -0.5324376 -0.2692279 0.048490956 -0.31544763 -0.46861726 -0.19182028
0.28540754 0.24116628 -0.066099815 -0.6091409 -0.2129955 -0.4402192 -0.35412672 0.028282586
-0.5730484 -0.20782636 -1.0374423 -0.3130721 0.14675993 0.21553138 0.5906136 0.5970545
0.56551194 -0.05403415 0.54668504 0.30223626 0.22275962 -0.068308376 0.135888 -0.03003272
-0.10882199 -0.1894556 0.2171027 -0.061980996 -0.2293121 0.33628762 0.45653045 0.29534695
-0.032027014 0.026315406 0.36797336 0.10609828 -0.3441875 0.24022852 0.20776443 0.037439123
0.110166006 -0.29972932 0.3019101 -0.4462063 -0.09275742 -0.16133405 0.26252556 0.2645273
0.3658994 0.007994798 -0.14303492 0.2910417 -0.39710093 0.12694435 0.29502827 0.2687714
-0.3541416 -0.6195614 -0.80969775 -0.39070103 0.030125875 0.005260964 0.15883283 0.12618987
0.42313915 0.080980346 -0.33754286 -0.37130484 -0.51025003 -0.4731752 0.17655626 -0.1412901
0.03580938 0.3453852 -0.64936686 -0.2832412 0.6685742 -0.14240342 -0.07843113 -0.024349542
0.020231329 0.39235023 -0.08009943 -0.20363984 0.13017203 0.12829033 -0.27670258 0.24613407
0.11421519 0.21065928 -0.20795523 -0.4779038 -0.38174635 -0.14474851 -0.6531818 -0.0019473559
-0.058992866 -0.30142722 -0.7076434 -0.5780423 -0.6415247 0.18920885 -0.4042112 -0.52811277
0.05899835 -0.13957821 -0.3335419 -0.21143195 -0.09406506 0.089649364 0.2784128 0.43026435
0.36889234 -0.47729537 -0.38620102 -0.29765302 0.31182152 -0.233725 -0.20087548 -0.062051214
-0.12746061 -0.2630284 -0.08354454 -0.0077099623 0.07907174 0.4279709 -0.21060276 0.289895
-0.26556423 -0.076319695 0.85498786 0.5488815 0.20575584 -0.08089312 -0.2823061 -0.3351173

affine1.bias f4 [128]
00000000: 7ef8 be3e f4c3 f0be cfbd 4dbe 0b7e b7be
00000010: b684 833e c1c7 403e 6579 213e d6f2 ef3d
00000020: fdde d2be c7c9 cf3e e477 5a3d 2788 ebbe
00000030: 81f9 153e e9e9 81be 0641 2ebf e315 a13e
00000040: c7c5 d1be 9f91 3cbe 8efb 12be 83a8 23be
00000050: 7def fabe 0a40 bc3d ba15 e53e a110 ad3d
00000060: 33f6 8f3e e11a 3ebe 489b 0c3d dc68 08bc
00000070: 6962 8abe f7c2 c7bd d9f8 0ebc 2acc c6bc
00000080: be27 133e 949f b93e 2c24 583e 6302 b7be
00000090: 411d 80be dd27 49be fb76 50bd a9be a4be
000000a0: d039 c0be 2947 963e ace3 b93e a214 0d3e
000000b0: ccaf bf3e db60 9e3e 6948 383d 1cc5 863e
000000c0: 4ee7 093d 64e4 0b3e 31ef da3e 146a 03bf
000000d0: eb6f cc3e 279a 84bd 590c 483e 23fa a8be
000000e0: 7e70 d3be dd2e 773e af05 713e e1cf 743e
000000f0: 6e91 b63e 1894 b3be 73f6 6e3e 1dc8 da3e
00000100: dadb 3d3e d4bd 5a3d 41fa 6d3e 98f9 0ebf
00000110: 1e1c 173f 38c4 7ebe cca2 7dbe 04b4 033f
00000120: 7c2d 7fbe 0668 00be bb23 e4be b6a3 1c3f
00000130: 181c 773e f26f a6be c745 1d3e b774 733e
00000140: 418f d03b c004 b5be 9d07 e7be f3cf 773e
00000150: 9d7e c0bd d1b9 4ebe 8400 f53b c7ff 363e
00000160: 8263 183e 4ad9 cbbe 7095 573e 88ff 2d3e
00000170: ef91 8a3e 0e23 07bf 645f a93e 254c 3b3e
00000180: 1c1c 21bf d8cb 813e 1f46 06bc 7956 dd3e
00000190: ddd6 573e ab8b 0a3d 6715 ddbe 9665 e13e
000001a0: 37ed a03e 9c53 2cbc a9cb 143e 5fcd f3bd
000001b0: 8149 a53e 64ec 213d 2b1b 47be af20 193e
000001c0: 5b73 233e c23b 18bd 6508 28be b7c0 e53d
000001d0: ed56 e63e 3586 d23d d9ad 643e 7ed3 4f3d
000001e0: 2fe7 f0be 556d dcbc d2e8 933e 1851 923e
000001f0: c178 1bbe b7f5 e83d 09e6 573d f838 6e3e
0.3729896 -0.470245 -0.20091937 -0.3583835 0.25687188 0.188262 0.15768965 0.11716239
-0.41185752 0.4058363 0.053336993 -0.46002313 0.1464596 -0.25373772 -0.6806797 0.3146201
-0.40971205 -0.18414925 -0.14353773 -0.15982251 -0.4901084 0.09191902 0.4474314 0.08450437
0.28117523 -0.18564941 0.034327775 -0.008325782 -0.27028206 -0.097539835 -0.008726322 -0.024267275
0.14370629 0.3625456 0.21107548 -0.35744008 -0.2502232 -0.19644113 -0.05089472 -0.32176712
-0.37544107 0.29351166 0.36306512 0.13777402 0.3743881 0.3093327 0.04499093 0.26322258
0.033667855 0.13661343 0.42760614 -0.5133374 0.39929137 -0.06474715 0.1953596 -0.3300334
-0.41296762 0.2413897 0.23537324 0.23907425 0.3565783 -0.35073924 0.233362 0.427308
0.18540898 0.05340369 0.23239996 -0.558496 0.5902728 -0.24879539 -0.24769133 0.5144656
-0.24919695 -0.12539682 -0.4455851 0.61187303 0.2413181 -0.32507282 0.15358649 0.23774992
0.0063647334 -0.35355186 -0.45122996 0.2420042 -0.093991496 -0.20188071 0.007476868 0.17871009
0.14881709 -0.39814216 0.210531 0.16992009 0.27064463 -0.52787864 0.3308059 0.18290766
-0.62933517 0.25350833 -0.008195429 0.43230036 0.21078058 0.033824604 -0.4318039 0.44022816
0.3143098 -0.010517981 0.14530815 -0.11904406 0.32282642 0.03953208 -0.19443958 0.14953874
0.15961973 -0.037166364 -0.16409452 0.11218398 0.44988194 0.10279504 0.22331943 0.050738804
-0.4705138 -0.026907602 0.28888565 0.28577495 -0.15182783 0.113749914 0.052709613 0.2326392

affine2.weight f4 [2, 128]
00000000: 45d8 c6bd 83af 5cbd 76e3 4e3d bfdd fbbc
00000010: 0a51 7fbd 8a49 383e fef8 e7bb 3c67 823d
00000020: 546e 63bd 04ad bf3e 12fe 7a3e a62d 7fbc
00000030: fd1c 913d bac6 ebbc 08c4 903b 5639 febd
00000040: db08 063d 4901 353e c36b e8bd 676f 2a3e
00000050: 8206 7c3d 1d70 c3bc 7ece 5dbe d957 c63c
00000060: de37 5a3e 80fe 69bd 5915 c2bd a77b fbbd
00000070: e0d4 923d 84ae 02bc ce15 393e 58b0 1e3e
00000080: 8e15 7e3e 93fe 63be 57d6 18be ba88 16bd
00000090: b966 983d e502 33bd a959 95bd b3df 6d3d
000000a0: e57a c63c 2228 01be a3c5 79bc 0b4d 09be
000000b0: 80e1 733e 5870 f63b d404 bd3d 3747 81bd
000000c0: 4ab7 313d 928b 36be 58be 2e3c a10b 313c
000000d0: 26fb 593e 1763 533e 1bc1 cc3e fc6c 8f3e
000000e0: d992 e9bb 9d77 63bd dbfc 253d 66b8 823c
000000f0: ffb6 133e aee9 243d e274 34be 64fd 0c3e
00000100: d2b4 cebd 3665 d3ba 0bc8 bb3e e7fc 74bd
00000110: b137 12be a004 833d 4265 96bd f101 d13d
00000120: d025 673e 4148 c5bc e3ee 27be 7169 5fbe
00000130: caca 843e 98d3 ab3d 08b3 bf3e 3de3 653d
00000140: 04a2 7a3d 22f8 6a3c 36f4 a93c 0c6b 873e
00000150: 9da4 00bd e859 c1ba cb55 c13d bf97 cd3e
00000160: c8de 14bd 97b0 b63d 7cbb 163c 06d0 1dbe
00000170: c0df 91be 281e 48ba dcc9 e6bb e3d7 563e
00000180: bb63 7ebd 02ee c3bc 0b9b b4bd 1ed9 593e
00000190: 051b 9bbd a60b 9f3e 7de5 453d 3b60 f3bd
000001a0: c51b 04be 3de8 873e 6a9b 693e a2ce 5bbe
000001b0: 5cb3 933e 987c 1bbe 3bfc 853d 65cd 383e
000001c0: a121 adbe a55a d4bd 5c8b b23c 272a 9fbd
000001d0: 7e33 52be 3e4e 94bd f39e ed3e c1c2 853e
000001e0: ff16 70ba 10ae 00bd ae6a c0bd fcc7 bbbd
000001f0: 20a1 c43d e9e1 f8ba 2bde 49bd cc6d da3b
00000200: 6fe6 623e 6c5e 473d 35bd 98bc 54e7 bebd
00000210: 2aa9 9bbc a6f0 81be 7e53 863d 3a4c 1cbe
00000220: 831e d53d b7e2 acbe cead 6abe b382 a73d
00000230: 58e9 2ebe b6aa c6bc eb65 1c3d dd6e ec3d
00000240: 909f 1dbd abe5 79be f0ef 093e 17b5 09be
00000250: 8253 88bd 0919 f73d fa7e 8a3d b63f 17be
00000260: c8c0 86be 1d96 893d cce4 713d 4a46 983c
00000270: 0642 1dbe 4806 7dbd fa57 30be f972 18be
00000280: 40b2 2bbe c967 5a3e 0d34 273e be63 67ba
00000290: 39dc 75bd 33d4 dabc 7bce eebc 8771 a3bc
000002a0: 5d4b bd3d 3c27 133e 3269 653c ae5a 3b3d
000002b0: 388b 6cbe 5ea1 58bd 1b2d f4bc 92ce a63d
000002c0: ac79 ccbd dbca 9d3d 07d8 c7bc c96b 4d3c
000002d0: 3c54 09be e8f6 17be afcd a6be 2db7 4ebe
000002e0: 3633 dbbd b952 d13d a4b1 debc 4088 e1bd
000002f0: 8e88 33bc dac6 a4bd da4c 343e ea85 603c
00000300: 3e93 663d 506b 183c 3d8f bdbe d721 123d
00000310: 0657 ac3d c0c8 ddbd 9c0c 013e a101 1bbe
00000320: b32d 5dbe a2c8 94bd 53a6 513e 5a4b 8f3e
00000330: 04d3 99be 5122 39bd 9b1b b2be fada 20be
00000340: 8b13 763c 1fb0 5e3d 3b0a 70bc ed5c 17be
00000350: 81dc 553d f36d 06bd 93eb 0ebe 8bac c5be
00000360: f081 823c 05b7 38bd d509 853d d29c f53d
00000370: 4283 953e 7a49 bfbd e7fb 493d 3890 0dbe
00000380: bd88 17bd e178 bb3d 7439 083d c373 9fbe
00000390: daab 133e e21b 8bbe 0b57 3dbc e58e aa3d
000003a0: d953 103e 479e 6cbe 6a86 91be 4910 0b3e
000003b0: b069 85be 0367 7f3e 7a4d 04be 67b8 2bbe
000003c0: 5b42 473e f434 3c3d 4d86 88bd 749f 533e
000003d0: 1117 1f3e 03c0 b3bc 7a3d bbbe d56a 27be
000003e0: f3b5 0e3e 55f9 2bbc a308 f33b 29ec 663d
000003f0: 84ec 29be cd04 bd3d b18d 8f3d acb9 203d
-0.09709219 -0.05387832 0.050509892 -0.030745385 -0.062333144 0.17996803 -0.0070792427 0.06367347
-0.05552514 0.37436688 0.24510983 -0.015574848 0.07085607 -0.028781284 0.0044179 -0.1241328
0.03272329 0.17676271 -0.11348679 0.16644059 0.061529644 -0.02385717 -0.21660802 0.02421181
0.21310374 -0.057127476 -0.09476728 -0.12279444 0.07169509 -0.007976178 0.18074724 0.15496957
0.2481291 -0.22265081 -0.14925514 -0.036751486 0.07441468 -0.043703932 -0.07292492 0.058074664
0.024228523 -0.12612966 -0.015244874 -0.13408296 0.2381649 0.0075207166 0.092294365 -0.06312411
0.04338769 -0.1782668 0.010665499 0.010805995 0.21287212 0.20643269 0.39991078 0.28012836
-0.0071281013 -0.055533994 0.040524345 0.015957069 0.14425276 0.040261917 -0.17622712 0.13768536
-0.100930825 -0.0016128186 0.36676058 -0.0598115 -0.14279057 0.063973665 -0.07343532 0.102054484
0.22573018 -0.024082305 -0.16399722 -0.21817566 0.25935966 0.08389968 0.37441278 0.056124914
0.061189666 0.014341386 0.020746332 0.26448858 -0.031406987 -0.0014751526 0.09440192 0.40154836
-0.036345273 0.089204006 0.009199973 -0.15411386 -0.2849102 -0.0007633888 -0.0070431065 0.20980792
-0.06210683 -0.023917202 -0.088186346 0.2127423 -0.07573513 0.31063575 0.04831456 -0.11883589
-0.12901218 0.2654437 0.22813192 -0.21465543 0.28847778 -0.15184247 0.0654225 0.18047102
-0.3381472 -0.103688516 0.021794967 -0.07771712 -0.20527455 -0.07241486 0.4641033 0.26125148
-0.00091587 -0.031416 -0.093953475 -0.09169003 0.09601045 -0.0018988225 -0.04928414 0.006665921
0.22158216 0.048674032 -0.018644908 -0.09321466 -0.019001562 -0.25378913 0.065588936 -0.15263453
0.1040621 -0.3376672 -0.22917864 0.08179226 -0.17081201 -0.024251323 0.038183134 0.11544583
-0.03848225 -0.24404018 0.13470435 -0.13447987 -0.06656553 0.12065322 0.067625 -0.14770398
-0.26318955 0.06718085 0.05905609 0.018588204 -0.15357217 -0.06177357 -0.1722106 -0.14887609
-0.16767216 0.21328653 0.1632845 -0.00088268134 -0.060024474 -0.026712513 -0.029151192 -0.019951595
0.0924289 0.14370435 0.014002131 0.045740776 -0.23099983 -0.052888267 -0.029806664 0.08144869
-0.099841446 0.07704707 -0.024395002 0.012537905 -0.13411039 -0.14840281 -0.325788 -0.20187064
-0.10703127 0.10220856 -0.027184315 -0.11012316 -0.01095785 -0.080457404 0.17607442 0.013703803
0.056292765 0.009302929 -0.37023345 0.035676803 0.08415036 -0.10829306 0.12602466 -0.1513734
-0.21599464 -0.0726483 0.20473604 0.27987176 -0.30043805 -0.045198742 -0.34786686 -0.15708533
0.015019308 0.05436718 -0.014650877 -0.14781542 0.052212242 -0.0328197 -0.13957052 -0.38608202
0.0159311 -0.045096416 0.06496016 0.11992802 0.29201704 -0.093401864 0.0493125 -0.13824546
-0.03699564 0.09153915 0.033257917 -0.31143007 0.14421025 -0.2716971 -0.011556397 0.08328036
0.14094485 -0.23107253 -0.28422862 0.13580431 -0.26057196 0.2494164 -0.1292018 -0.16769563
0.19458906 0.045948938 -0.06666241 0.20666295 0.15536143 -0.021942144 -0.3657034 -0.16349347
0.13936596 -0.010496457 0.007416801 0.056377564 -0.1659413 0.09229431 0.07009447 0.03923957

affine2.bias f4 [2]
00000000: 00aa 3e3d f54c 92bc
0.046548843 -0.017858962
